Chapter 10/logs/MNIST_MLR/version_0/checkpoints/epoch=29-step=5640.ckpt (torch, 67084 bytes, 4 tensors)

model.linear.1.weight f4 [10, 784]
0	0x3c98deba	0.018660892
1	0x3c8c1073	0.017097687
2	0x3cb7b01c	0.022422843
3	0xbcf9687a	-0.030445326
4	0x3cdc07ea	0.026859242
5	0x3cef50ac	0.029213272
6	0xbbbb97d3	-0.005724886
7	0xbcd7755e	-0.026301082
8	0xbb219f25	-0.0024661508
9	0x3c01d18a	0.007923493
10	0xbb822a13	-0.003972301
11	0x3ce44b1a	0.027867842
12	0xbdf8486e	-0.1212319
13	0xbe809d4a	-0.25120002
14	0xbe0cc33f	-0.13746355
15	0x3cb321fd	0.021866793
16	0x3d0a5350	0.03377086
17	0xbcf77a2a	-0.03020962
18	0xbb5d7a93	-0.0033794984
19	0xbd02f55b	-0.03197227
20	0x3d029325	0.03187861
21	0xbb53d3ee	-0.0032322365
22	0xbca1e103	-0.019760614
23	0x3ca9f803	0.020748144
24	0x3c88f0b0	0.016716331
25	0xbcc44da5	-0.023962805
26	0x3c966e17	0.018363042
27	0x3cf8e9ae	0.030384865
28	0xbbfdd7dc	-0.0077466797
29	0x3cac3d71	0.021025391
30	0xbb9932b7	-0.004675235
31	0x3c13b617	0.009015582
32	0x3c7ba476	0.015359035
33	0xbd0f338f	-0.03496128
34	0xbdbdab71	-0.092612155
35	0xbe9e918c	-0.30970418
36	0xbe9e5a99	-0.30928496
37	0xbec1645d	-0.37771884
38	0xc0134f21	-2.3017046
39	0x407dfcdc	3.9685583
40	0x408162b9	4.043301
41	0x40862cde	4.192977
42	0xc0d8570e	-6.760627
43	0x4098bc61	4.7729955
44	0x4083580a	4.104497
45	0x408aab8c	4.333441
46	0xc0d04c29	-6.509297
47	0xbfae7911	-1.3630697
48	0xbf824822	-1.0178263
49	0xbf04bd9b	-0.51851815
50	0xbe4676d2	-0.19381264
51	0xbca48204	-0.020081528
52	0x3ceb54ca	0.028726954
53	0x3b8ee80a	0.0043611573
54	0x3a929225	0.001118247
55	0xbb7e5293	-0.0038806542
56	0x3d1124c7	0.035435464
57	0x3cf11438	0.029428586
58	0xbd2a41f3	-0.0415668
59	0x40855afe	4.1673574
60	0x4089d20e	4.3068914
61	0xbf106c61	-0.56415373
62	0xc06bd17b	-3.6846607
63	0x3ff434a9	1.9078571
64	0xc025ffcf	-2.5937383
65	0xc0ae9e38	-5.456814
66	0xc10e6951	-8.900712
67	0xc085711b	-4.170057
68	0xc0927d3b	-4.577787
69	0xbfa81581	-1.3131562
70	0xc0ad6e8f	-5.419746
71	0xc13765b3	-11.462329
72	0x3f652456	0.8950857
73	0xc0f6f8d2	-7.7178736
74	0xc058cd24	-3.3875208
75	0xbfbdce4f	-1.4828585
76	0xc0ee7878	-7.4522057
77	0xc0c4a1cb	-6.14475
78	0xc08bba92	-4.3665247
79	0xc0823893	-4.069406
80	0xc0038552	-2.0550122
81	0xbdab06e1	-0.083509214
82	0xbcc41765	-0.023936937
83	0xbc97e363	-0.018541044
84	0x3cb6ff73	0.022338605
85	0x3cdcef53	0.026969587
86	0xbccd5cd8	-0.025068685
87	0x400c12b9	2.1886427
88	0xc027b291	-2.6202738
89	0x405fd9c3	3.4976661
90	0xbfc91300	-1.5708923
91	0xc0417ebe	-3.0233607
92	0xbfdff723	-1.7497295
93	0xbf00ab89	-0.5026174
94	0xbf69bf0c	-0.9130714
95	0xbcbdd823	-0.023174351
96	0xbfc68009	-1.5507823
97	0x3f297802	0.6619874
98	0x3ff6e487	1.9288491
99	0xbfae2f07	-1.3608102
100	0x3f864f5d	1.049297
101	0x3f3a6337	0.7280764
102	0xbfd83016	-1.6889675
103	0xbff49a4e	-1.910959
104	0x3fd4c323	1.6622051
105	0xc00bc018	-2.1835995
106	0xbf93b6da	-1.1540177
107	0xbea0be9b	-0.3139542
108	0xbfb48706	-1.4103706
109	0x402afafe	2.6715693
110	0xc0903b1f	-4.507217
111	0xbc86508c	-0.01639583
112	0x3cc434de	0.02395099
113	0x3c3b8727	0.011445797
114	0xbf6da71b	-0.9283311
115	0xc03fb52d	-2.995433
116	0xbfc5fbf3	-1.5467514
117	0xc106df35	-8.429494
118	0xc052587b	-3.2866504
119	0x3fb46ad3	1.40951
120	0xbe52e7ee	-0.20596287
121	0x3f1bd65f	0.6087398
122	0xbfaf79f7	-1.3709096
123	0x3fd57826	1.6677291
124	0xbfc28978	-1.5198202
125	0x3eb47ba5	0.35250583
126	0xbe65eb49	-0.22453035
127	0x3e0ea435	0.13929828
128	0xbf28a247	-0.65872616
129	0x3eb99122	0.3624354
130	0xbe8cf43a	-0.2753008
131	0x3f07f7e0	0.531126
132	0xbebe9593	-0.3722349
133	0xbf3fb2b1	-0.74882036
134	0x3fbc4889	1.4709636
135	0xbe26c7ce	-0.16287157
136	0xbf5e0df2	-0.8674003
137	0x3ed7b701	0.42131808
138	0xc0d3c0fc	-6.6173077
139	0xbf39802b	-0.72461194
140	0x3c7aa6f3	0.015298593
141	0xbcd04ec3	-0.025428182
142	0xc087b0d5	-4.240336
143	0xc0863470	-4.193901
144	0xc0a4be2e	-5.1482153
145	0xc09563a9	-4.6684155
146	0x3f6a2c21	0.91473585
147	0xbf828101	-1.0195619
148	0xbf4561d7	-0.77102417
149	0x3dd37c89	0.103264876
150	0x3f9ef28b	1.2417768
151	0x3dfa0f83	0.1220999
152	0xbeb863c1	-0.36013606
153	0x3ed66256	0.418719
154	0x3ec4f344	0.38466847
155	0xbec01654	-0.37517035
156	0x3e19bd8c	0.15013713
157	0x3f411d37	0.75435203
158	0xbdddc4f4	-0.108285815
159	0x3e615f45	0.22008999
160	0x3e193255	0.14960606
161	0xbeca587d	-0.39520636
162	0xbf2e1ae0	-0.6800976
163	0xbf4d9e7d	-0.8031996
164	0xbf2d1493	-0.6760952
165	0xbf30b314	-0.6902325
166	0xc0f844df	-7.758407
167	0xc04c870b	-3.1957424
168	0x3b86819c	0.004104806
169	0xbf085314	-0.5325177
170	0xc09136d6	-4.537944
171	0xc0ba9128	-5.8302193
172	0xbf8aa857	-1.0832623
173	0xbf3cae65	-0.73703605
174	0x3f82b661	1.0211908
175	0xbbffd37c	-0.0078071933
176	0x3d4f8c57	0.050670948
177	0xbff92cad	-1.9466759
178	0xbf10e575	-0.56600124
179	0xbd6e2fe0	-0.058151126
180	0xbf187427	-0.59552234
181	0x3f7de92d	0.99183923
182	0x3d04cbc6	0.032420896
183	0xbdbdf880	-0.09275913
184	0x3f0a8c8e	0.5412072
185	0xbefd5d99	-0.49485472
186	0x3f10acb1	0.56513506
187	0xbd477e30	-0.048704326
188	0x3d27e886	0.040993236
189	0x3f60f50f	0.8787393
190	0x3f6fe91b	0.93715066
191	0xbf2eefc8	-0.6833463
192	0xbffc44b2	-1.9708464
193	0xc0aaa27d	-5.332335
194	0xc0cd6aa8	-6.4192696
195	0xbe31b7d3	-0.1735528
196	0x3caee453	0.021349108
197	0xc0806443	-4.012239
198	0xc08b970c	-4.3621883
199	0xc0432df9	-3.049681
200	0xc00e524d	-2.2237732
201	0x3e8fdd52	0.28098541
202	0x3f59de1f	0.85104555
203	0x3f411978	0.7542949
204	0xbf955054	-1.1665139
205	0x3f8e3387	1.1109475
206	0x3e84a44c	0.259066
207	0x3ed697d5	0.41912714
208	0xbeca31a8	-0.3949101
209	0x3f1e4a83	0.61832446
210	0x3ee1f80a	0.4413455
211	0xbebe8a5d	-0.37214938
212	0xbe8a8316	-0.27053136
213	0x3f89cfce	1.0766542
214	0x3f10f6fd	0.56626874
215	0x3f0c5146	0.54811513
216	0xbec29961	-0.38007644
217	0xbebd6096	-0.36987752
218	0xbf522719	-0.8209091
219	0x3ea54854	0.32281744
220	0x3e63e26c	0.22254342
221	0xbf35628e	-0.7085351
222	0xc136ebfd	-11.432614
223	0x3f4d4586	0.8018421
224	0x40adf275	5.435847
225	0xc08e78a1	-4.452225
226	0x4035c198	2.839941
227	0x3feb5892	1.8386405
228	0xc03d9e27	-2.9627779
229	0xbfb03761	-1.37669
230	0xbf479c00	-0.7797241
231	0xbe0b0466	-0.13575897
232	0x3f1e590e	0.61854637
233	0x3e1e31b4	0.15448648
234	0xbf66cbe5	-0.9015487
235	0x3e0eaad0	0.13932347
236	0x3f1dc7bd	0.616329
237	0xbf573511	-0.8406535
238	0x3f2d297b	0.6764142
239	0x3ef1fdad	0.47263852
240	0x3f7bbb19	0.98332363
241	0x3f6ba25a	0.92044604
242	0x3dad5991	0.08464349
243	0xbf029e8b	-0.5102317
244	0x3f308865	0.6895812
245	0x3f280bc2	0.6564294
246	0x3f84b359	1.0367233
247	0xbe4400fe	-0.19141003
248	0xbf2fe65f	-0.68710893
249	0xc038f78e	-2.8901095
250	0xc12ec457	-10.922935
251	0xc09b0ac5	-4.8450646
252	0xbe6579d3	-0.22409754
253	0xbf93ec63	-1.1556515
254	0xc088688f	-4.2627635
255	0x3f84e717	1.0383023

model.linear.1.bias f4 [10]
0	0xbfabc6bc	-1.3420024
1	0x4013553a	2.3020768
2	0x3f02c9e8	0.51089334
3	0xbf646c0e	-0.8922738
4	0x3ef5de4d	0.48021165
5	0x40330b59	2.7975676
6	0xbf58f8c1	-0.8475457
7	0x3fca58e5	1.5808378
8	0xc0161141	-2.344803
9	0xbf10b3ef	-0.56524557

square_avg f4 [10, 784]
0	0x00000000	0.0
1	0x00000000	0.0
2	0x00000000	0.0
3	0x00000000	0.0
4	0x00000000	0.0
5	0x00000000	0.0
6	0x00000000	0.0
7	0x00000000	0.0
8	0x00000000	0.0
9	0x00000000	0.0
10	0x00000000	0.0
11	0x00000000	0.0
12	0x181bfb6a	2.0160212e-24
13	0x193b24e2	9.675122e-24
14	0x14368fc1	9.217002e-27
15	0x0fa246e4	1.600174e-29
16	0x00000000	0.0
17	0x00000000	0.0
18	0x00000000	0.0
19	0x00000000	0.0
20	0x00000000	0.0
21	0x00000000	0.0
22	0x00000000	0.0
23	0x00000000	0.0
24	0x00000000	0.0
25	0x00000000	0.0
26	0x00000000	0.0
27	0x00000000	0.0
28	0x00000000	0.0
29	0x00000000	0.0
30	0x00000000	0.0
31	0x00000000	0.0
32	0x0744415b	1.4764607e-34
33	0x08e45727	1.374274e-33
34	0x0b4932b8	3.8749348e-32
35	0x177c0d7d	8.1442616e-25
36	0x1a3b0d24	3.868131e-23
37	0x1a0baa0d	2.8881892e-23
38	0x23351a3c	9.817585e-18
39	0x2da89e51	1.9169695e-11
40	0x2ea4ae77	7.488848e-11
41	0x2d5e9946	1.26532725e-11
42	0x25991415	2.6554877e-16
43	0x2f11e91b	1.3270489e-10
44	0x308adb96	1.0103232e-09
45	0x2f7bcb0b	2.2900452e-10
46	0x28af0862	1.9432538e-14
47	0x18c2f0c4	5.0390936e-24
48	0x1822b699	2.1030198e-24
49	0x0ceaba08	3.6165372e-31
50	0x0bd4b93e	8.193815e-32
51	0x0c4f9bc4	1.5993574e-31
52	0x00000000	0.0
53	0x00000000	0.0
54	0x00000000	0.0
55	0x00000000	0.0
56	0x00000000	0.0
57	0x00000000	0.0
58	0x171c37ae	5.0476596e-25
59	0x296e431a	5.2904817e-14
60	0x27e2a09d	6.290174e-15
61	0x18a45049	4.2474074e-24
62	0x25bba3cb	3.255032e-16
63	0x2a9609d1	2.6652164e-13
64	0x2979007a	5.528952e-14
65	0x29b9ad12	8.245673e-14
66	0x2a17bdc1	1.3477328e-13
67	0x31147ef7	2.1609006e-09
68	0x314ef38e	3.011539e-09
69	0x309a012f	1.1205311e-09
70	0x301c33ed	5.682626e-10
71	0x2ddc99f3	2.5079471e-11
72	0x2f0a5a9c	1.2583218e-10
73	0x2ce7480e	6.5734146e-12
74	0x2b0b3d06	4.9467407e-13
75	0x2bff6ea7	1.8149552e-12
76	0x2b810f90	9.170321e-13
77	0x27b06eee	4.8970083e-15
78	0x2421a7e5	3.5053522e-17
79	0x23a2c726	1.7648418e-17
80	0x1eb9b201	1.9661258e-20
81	0x19998114	1.5871963e-23
82	0x00000000	0.0
83	0x00000000	0.0
84	0x00000000	0.0
85	0x00000000	0.0
86	0x183d8f88	2.4500142e-24
87	0x2cd5dd63	6.078403e-12
88	0x30a3ee62	1.1927563e-09
89	0x2e8fae22	6.533819e-11
90	0x2f152651	1.3565084e-10
91	0x321ab973	9.006146e-09
92	0x33a72e75	7.784994e-08
93	0x337d025e	5.8908306e-08
94	0x33c0a083	8.9698936e-08
95	0x34928a8a	2.729542e-07
96	0x34cd079b	3.818976e-07
97	0x34f34cb4	4.5318086e-07
98	0x3520507d	5.972177e-07
99	0x3500b28d	4.794354e-07
100	0x3504571e	4.9300604e-07
101	0x34d18c87	3.903153e-07
102	0x34f7a8ab	4.6130057e-07
103	0x34e0021d	4.172479e-07
104	0x341cd4ae	1.4606005e-07
105	0x3408581e	1.2698044e-07
106	0x33a37a14	7.612485e-08
107	0x332ec9d2	4.0696087e-08
108	0x326139e5	1.3109887e-08
109	0x2e8d7a3f	6.433653e-11
110	0x2a8a338b	2.454949e-13
111	0x00000000	0.0
112	0x00000000	0.0
113	0x10bff92d	7.572013e-29
114	0x2080bc8a	2.1808808e-19
115	0x2d9a7802	1.7561067e-11
116	0x2b0e822b	5.062918e-13
117	0x2ebe41ae	8.651867e-11
118	0x32c3681d	2.2748333e-08
119	0x3468fd66	2.169887e-07
120	0x34bb950e	3.4939916e-07
121	0x350d6e62	5.268722e-07
122	0x358bd02d	1.0416894e-06
123	0x35a1fd4b	1.2069153e-06
124	0x35abe21e	1.2806302e-06
125	0x35fa66aa	1.8656331e-06
126	0x361c142b	2.325755e-06
127	0x362beddb	2.5619436e-06
128	0x3633e459	2.6805994e-06
129	0x36279f81	2.4977783e-06
130	0x361a69a5	2.3009281e-06
131	0x35edb242	1.7709756e-06
132	0x357c9818	9.409864e-07
133	0x3532d84b	6.6624915e-07
134	0x34fba716	4.6873964e-07
135	0x345f428e	2.0792706e-07
136	0x33c1e6f3	9.029272e-08
137	0x308bf41d	1.0182962e-09
138	0x28f7a1bc	2.749265e-14
139	0x19512b5b	1.0813802e-23
140	0x00000000	0.0
141	0x00000000	0.0
142	0x2785ab7b	3.7100835e-15
143	0x30928624	1.0661023e-09
144	0x28db0a05	2.431823e-14
145	0x331d2e02	3.6596255e-08
146	0x34a28f6f	3.0279213e-07
147	0x350896b8	5.088327e-07
148	0x3572e89a	9.0490505e-07
149	0x35f2a201	1.8077554e-06
150	0x363b4704	2.7906508e-06
151	0x3678e253	3.7086618e-06
152	0x3699a69b	4.5791508e-06
153	0x36bd22ad	5.6366757e-06
154	0x36e7712c	6.8975114e-06
155	0x36f8cd6a	7.4148893e-06
156	0x370222c4	7.756698e-06
157	0x36f9a6d7	7.440201e-06
158	0x36ebb12e	7.024172e-06
159	0x36aa6cfd	5.0790827e-06
160	0x364b4a7f	3.029272e-06
161	0x3603dd0e	1.9649192e-06
162	0x359a410f	1.1492829e-06
163	0x350e03da	5.2904727e-07
164	0x344bea40	1.8991068e-07
165	0x300841f7	4.9570253e-10
166	0x2974d723	5.4365485e-14
167	0x2090385e	2.443185e-19
168	0x00000000	0.0
169	0x182a8d0a	2.2043192e-24
170	0x2e915212	6.608415e-11
171	0x26b13810	1.2297038e-15
172	0x2f01e408	1.1813495e-10
173	0x343119f9	1.6493858e-07
174	0x35050e6c	4.956735e-07
175	0x35822966	9.697803e-07
176	0x35d76446	1.6047932e-06
177	0x36566fe8	3.1953623e-06
178	0x36a948e3	5.0450776e-06
179	0x36d7812c	6.422537e-06
180	0x36f1984b	7.200089e-06
181	0x37195fe3	9.141836e-06
182	0x37374a17	1.09249e-05
183	0x3746cafd	1.1848982e-05
184	0x37500734	1.2399443e-05
185	0x373ba7f5	1.1185174e-05
186	0x371bacc6	9.278947e-06
187	0x37006bb5	7.654472e-06
188	0x36a9d163	5.0609683e-06
189	0x36720744	3.606504e-06
190	0x3617494a	2.2543413e-06
191	0x359283df	1.0916227e-06
192	0x345a5e20	2.0337075e-07
193	0x323f10ea	1.1121509e-08
194	0x2a24c2e4	1.4633742e-13
195	0x28376d06	1.0182181e-14
196	0x00000032	7e-44
197	0x237100ba	1.306479e-17
198	0x231acd22	8.391795e-18
199	0x2ab092e3	3.1365804e-13
200	0x3005b1a1	4.8637544e-10
201	0x3454b5f3	1.9810231e-07
202	0x3541941c	7.211363e-07
203	0x35c218c6	1.4461336e-06
204	0x363b7ca9	2.7937733e-06
205	0x36a16280	4.809641e-06
206	0x36e379d5	6.7793103e-06
207	0x36fbc2b0	7.5030475e-06
208	0x370bc86b	8.331709e-06
209	0x371e65a3	9.441198e-06
210	0x3726def5	9.946282e-06
211	0x372510aa	9.838646e-06
212	0x373ba1e3	1.1183761e-05
213	0x3742b537	1.16054935e-05
214	0x37307e8a	1.051988e-05
215	0x37230f12	9.719066e-06
216	0x36eacc7c	6.9975486e-06
217	0x36a68336	4.9624605e-06
218	0x36690312	3.4721493e-06
219	0x35daa763	1.6290982e-06
220	0x34f72e93	4.6041222e-07
221	0x33d25135	9.7936585e-08
222	0x2a72c722	2.1563006e-13
223	0x2943bec5	4.3464164e-14
224	0x3188b210	3.9783643e-09
225	0x26a95827	1.1750624e-15
226	0x2598ea74	2.6526668e-16
227	0x2ed67244	9.751891e-11
228	0x30ef157d	1.7395646e-09
229	0x348df8b0	2.644424e-07
230	0x3582fa51	9.758606e-07
231	0x360d699e	2.1072115e-06
232	0x36813c28	3.8515027e-06
233	0x36cb8c69	6.0662173e-06
234	0x37029008	7.782139e-06
235	0x3707c272	8.0919e-06
236	0x371d57dd	9.3783865e-06
237	0x3718e734	9.113737e-06
238	0x3718ea29	9.114426e-06
239	0x37115d48	8.664392e-06
240	0x372480e1	9.805169e-06
241	0x372bdece	1.024427e-05
242	0x37225570	9.675845e-06
243	0x371c2eb6	9.3092e-06
244	0x37083bde	8.120171e-06
245	0x36cd4aed	6.1181986e-06
246	0x369357e5	4.3911737e-06
247	0x360e7d99	2.1232756e-06
248	0x34ca0aa2	3.7633168e-07
249	0x3302a55a	3.041837e-08
250	0x2aa2b3cd	2.8901743e-13
251	0x203c6708	1.595831e-19
252	0x14b3d212	1.8157239e-26
253	0x1c7bf561	8.336608e-22
254	0x23c7423c	2.1603675e-17
255	0x305138ff	7.6114753e-10

square_avg f4 [10]
0	0x37d9f25d	2.5981275e-05
1	0x37dd5518	2.6384878e-05
2	0x38e2776f	0.00010798766
3	0x391ab655	0.00014754508
4	0x38859b46	6.370856e-05
5	0x391319f6	0.00014028684
6	0x3807ea76	3.2404867e-05
7	0x38b63503	8.6883105e-05
8	0x392bc8bb	0.00016382609
9	0x391b974b	0.00014838313
