Chapter 10/lightning_logs/version_0/checkpoints/epoch=29-step=5640.ckpt (torch, 67276 bytes, 4 tensors)

model.linear.1.weight f4 [10, 784]
0.018660892 0.017097687 0.022422843 -0.030445326 0.026859242 0.029213272 -0.005724886 -0.026301082
-0.0024661508 0.007923493 -0.003972301 0.027867842 -0.11847924 -0.24470757 -0.13692842 0.021889104
0.03377086 -0.03020962 -0.0033794984 -0.03197227 0.03187861 -0.0032322365 -0.019760614 0.020748144
0.016716331 -0.023962805 0.018363042 0.030384865 -0.0077466797 0.021025391 -0.004675235 0.009015582
0.015359108 -0.034960974 -0.09261028 -0.3085759 -0.30146492 -0.37452212 -1.6095793 2.1600776
2.1975634 2.1878228 -3.883168 2.3408217 1.8708619 2.1558983 -3.5220697 -1.3488448
-1.0085806 -0.5184993 -0.19381171 -0.020080945 0.028726954 0.0043611573 0.001118247 -0.0038806542
0.035435464 0.029428586 -0.03920313 2.1644738 2.2977417 -0.5593261 -1.9931341 0.4012846
-1.4617038 -3.3891757 -5.3951507 -2.1027455 -2.1009557 -1.6959182 -4.245034 -6.362384
-0.03035033 -4.771407 -2.9882221 -1.1932507 -4.3507557 -4.3335958 -2.7582293 -2.562514
-1.5693108 -0.07461084 -0.023936937 -0.018541044 0.022338605 0.026969587 -0.019890726 1.612508
-0.8950148 1.2501545 -1.0415958 -1.7555169 -1.2333808 -0.29785308 -0.41778848 -0.08605922
-1.02964 0.4889183 1.3178009 -0.83050495 0.8065839 0.7126458 -1.3017545 -1.3114837
0.8723234 -1.321475 -0.8822961 -0.41230136 -0.7503433 1.0266857 -2.1507392 -0.01639583
0.02395099 0.0114551755 -0.77158135 -1.7082256 -1.4660507 -5.048116 -2.1943004 0.523528
-0.20281039 0.55122316 -0.6383601 1.1894021 -0.995816 0.22680224 -0.08867792 0.067674674
-0.34893635 0.33898538 -0.10446303 0.23244728 -0.28135917 -0.54525197 1.0162992 0.09862396
-0.7282725 -0.42514038 -3.3146932 -0.7127246 0.015298593 -0.025428182 -2.2175548 -2.2705717
-3.056664 -3.0853117 0.3872278 -0.5241454 -0.23079641 0.14369148 0.94524187 0.23021978
-0.33355495 0.2761797 0.49442083 -0.17878538 0.13424963 0.57412004 -0.030795647 0.13539027
0.07280057 -0.15086737 -0.42849812 -0.66747975 -0.72468084 -1.3897482 -4.947967 -2.235768
0.004104806 -0.5263526 -2.463059 -3.5413558 -1.361116 -0.38726053 0.81871736 0.05873934
-0.011134736 -1.3647482 -0.24943009 -0.105436385 -0.4299799 0.776288 0.07844553 -0.22238117
0.32680842 -0.17500842 0.36136103 -0.008591624 -0.010284377 0.711408 0.8495938 -0.300239
-1.4931109 -4.0948114 -5.9224963 -0.98807096 0.021349108 -2.967167 -2.74163 -1.3077635
-1.7003701 0.14867924 0.59789836 0.44975114 -0.7542978 0.6731649 0.26477495 0.18250038
-0.20506687 0.5069368 0.22421159 -0.15683939 -0.16596778 0.7660368 0.46335196 0.31767702
-0.2395176 -0.18695271 -0.48089 0.29306057 0.35755673 -1.0812153 -6.3411236 -0.7039662
2.7208571 -2.5042958 1.5926194 1.7237518 -1.9461071 -0.8286784 -0.40745524 -0.088673614
0.45141837 0.2245595 -0.47971463 0.026649136 0.37689498 -0.44876358 0.47681332 0.39316595
0.7831867 0.7997642 0.107843794 -0.36827487 0.5295665 0.5355109 0.6881477 0.029755015
-0.2594567 -2.5732117 -6.08552 -3.447788 -0.22364195 -1.1084058 -2.1374464 1.1731113
00000000: bade 983c 7310 8c3c 1cb0 b73c 7a68 f9bc
00000010: ea07 dc3c ac50 ef3c d397 bbbb 5e75 d7bc
00000020: 259f 21bb 8ad1 013c 132a 82bb 1a4b e43c
00000030: 3ea5 f2bd 9f94 7abe f736 0cbe c750 b33c
00000040: 5053 0a3d 2a7a f7bc 937a 5dbb 5bf5 02bd
00000050: 2593 023d eed3 53bb 03e1 a1bc 03f8 a93c
00000060: b0f0 883c a54d c4bc 176e 963c aee9 f83c
00000070: dcd7 fdbb 713d ac3c b732 99bb 17b6 133c
00000080: c5a4 7b3c 3d33 0fbd 75aa bdbd a9fd 9dbe
00000090: 9c59 9abe 5dc1 bfbe b206 cebf b63e 0a40
000000a0: e1a4 0c40 4a05 0c40 d385 78c0 06d0 1540
000000b0: 6778 ef3f 3dfa 0940 9769 61c0 f2a6 acbf
000000c0: 2b19 81bf 5fbc 04bf 9476 46be cb80 a4bc
000000d0: ca54 eb3c 0ae8 8e3b 2592 923a 9352 7ebb
000000e0: c724 113d 3814 f13c 7693 20bd bd86 0a40
000000f0: 330e 1340 ff2f 0fbf 051f ffbf 2d75 cd3e
00000100: 1c19 bbbf 41e8 58c0 13a5 acc0 6293 06c0
00000110: 0f76 06c0 d913 d9bf 52d7 87c0 a698 cbc0
00000120: 41a1 f8bc 5eaf 98c0 083f 3fc0 70bc 98bf
00000130: 6439 8bc0 d1ac 8ac0 d486 30c0 3b00 24c0
00000140: 2ddf c8bf 91cd 98bd 6517 c4bc 63e3 97bc
00000150: 73ff b63c 53ef dc3c e0f1 a2bc aa66 ce3f
00000160: b11f 65bf 1005 a03f 0353 85bf c7b4 e0bf
00000170: 6cdf 9dbf 3380 98be 5fe8 d5be d13f b0bd
00000180: 3ecb 83bf 8053 fa3e b3ad a83f f99b 54bf
00000190: 487c 4e3f f56f 363f e49f a6bf b3de a7bf
000001a0: 9650 5f3f 1826 a9bf 28de 61bf 2a19 d3be
000001b0: 8016 40bf 706a 833f b6a5 09c0 8c50 86bc
000001c0: de34 c43c 7dae 3b3c 5b86 45bf 23a7 dabf
000001d0: 8da7 bbbf 2b8a a1c0 6b6f 0cc0 ee05 063f
000001e0: 87ad 4fbe f61c 0d3f 916b 23bf 543e 983f
000001f0: cced 7ebf d93e 683e c59c b5bd 0599 8a3d
00000200: c9a7 b2be 7e8f ad3e b7f0 d5bd a906 6e3e
00000210: 4f0e 90be a295 0bbf 1816 823f 5cfb c93d
00000220: 1170 3abf 00ac d9be ef23 54c0 1f75 36bf
00000230: f3a6 7a3c c34e d0bc 6bec 0dc0 0c51 11c0
00000240: 62a0 43c0 bf75 45c0 b942 c63e 652e 06bf
00000250: e555 6cbe dc23 133e 5ffb 713f bcbe 6b3e
00000260: b7c7 aabe 6d67 8d3e ba24 fd3e 8413 37be
00000270: bc78 093e 88f9 123f 2747 fcbc bfa3 0a3e
00000280: 7718 953d fa7c 1abe 1b64 dbbe f4df 2abf
00000290: af84 39bf 45e3 b1bf bf55 9ec0 d316 0fc0
000002a0: 9c81 863b 0bbf 06bf c2a2 1dc0 93a5 62c0
000002b0: 0d39 aebf 0347 c6be 7697 513f aa98 703d
000002c0: 786e 36bc 12b0 aebf 9a6a 7fbe 08ef d7bd
000002d0: 5326 dcbe cfba 463f 0da8 a03d e4b7 63be
000002e0: 6f53 a73e 6835 33be 5004 b93e e2c3 0cbc
000002f0: ce7f 28bc d61e 363f fb7e 593f edb8 99be
00000300: 421e bfbf b208 83c0 1785 bdc0 38f2 7cbf
00000310: 53e4 ae3c 10e6 3dc0 de76 2fc0 cb64 a7bf
00000320: baa5 d9bf 5f3f 183e de0f 193f c845 e63e
00000330: a919 41bf 8954 2c3f 9590 873e 61e1 3a3e
00000340: 0dfd 51be 9cc6 013f b997 653e 819a 20be
00000350: 75f3 29be fd1a 443f 783c ed3e 90a6 a23e
00000360: 1a44 75be 8870 3fbe 3737 f6be 090c 963e
00000370: ad11 b73e 4365 8abf 7cea cac0 2137 34bf
00000380: 8622 2e40 6246 20c0 f4da cb3f e6a3 dc3f
00000390: 0a1a f9bf 4524 54bf f99d d0be 839a b5bd
000003a0: 4f20 e73e edf2 653e 289d f5be 4a4f da3c
000003b0: 61f8 c03e 57c4 e5be e020 f43e 0c4d c93e
000003c0: ec7e 483f 59bd 4c3f 35dd dc3d 868e bcbe
000003d0: ac91 073f 3e17 093f 732a 303f cac0 f33c
000003e0: 82d7 84be 80af 24c0 94bc c2c0 8fa8 5cc0
000003f0: 6502 65be 3ee0 8dbf eccb 08c0 8328 963f

model.linear.1.bias f4 [10]
-1.0797042 1.9034601 0.44633368 -0.81612355 0.37291014 2.6347044 -0.69549423 1.4473772
-2.243785 -0.55879045
00000000: bf33 8abf 95a4 f33f d985 e43e 79ed 50bf
00000010: 14ee be3e ff9e 2840 e90b 32bf a843 b93f
00000020: 2c9a 0fc0 e40c 0fbf

square_avg f4 [10, 784]
0.0 0.0 0.0 0.0 0.0 0.0 0.0 0.0
0.0 0.0 0.0 0.0 2.7506387e-21 1.3270689e-20 8.335764e-23 1.4471811e-25
0.0 0.0 0.0 0.0 0.0 0.0 0.0 0.0
0.0 0.0 0.0 0.0 0.0 0.0 0.0 0.0
2.467109e-32 2.5660224e-31 1.6891125e-29 1.1042945e-21 5.1633648e-20 3.1058495e-21 1.1969739e-15 2.667418e-09
1.0423217e-08 1.7612756e-09 6.1704376e-16 1.3209247e-08 9.8688034e-08 2.2323697e-08 4.7327336e-16 9.203731e-20
3.8423512e-20 8.2287097e-25 5.3486415e-29 8.482189e-29 0.0 0.0 0.0 0.0
0.0 0.0 1.3398902e-21 4.1286063e-12 4.905967e-13 8.776915e-21 4.4609207e-14 1.0078777e-11
1.1672284e-11 2.9569812e-11 8.549304e-13 3.8952837e-09 1.2067974e-08 5.3357576e-09 1.7476086e-09 5.6666e-10
1.0533636e-08 2.742137e-10 1.5252044e-11 5.0512674e-11 4.673076e-11 5.7468136e-12 1.0969914e-14 5.5682815e-15
5.4602123e-17 1.2652553e-23 0.0 0.0 0.0 0.0 6.503505e-21 3.9914624e-11
1.0838915e-09 1.825374e-09 6.6586303e-10 3.278371e-09 1.1225818e-08 4.624955e-08 1.9365484e-07 4.892205e-07
3.796014e-07 4.463657e-07 5.6533844e-07 5.9256365e-07 5.66221e-07 4.4353618e-07 3.4149224e-07 2.3568518e-07
1.1738843e-07 5.7563806e-08 4.6860006e-08 4.496501e-08 1.8162757e-08 5.6049093e-10 9.279438e-13 0.0
0.0 9.499562e-28 1.0362765e-19 1.5747029e-11 7.559748e-15 1.2106052e-10 2.5557444e-08 2.1308804e-07
3.2679748e-07 6.5206757e-07 1.1500766e-06 1.2214296e-06 1.1588737e-06 1.7193946e-06 2.3283792e-06 2.524748e-06
2.3039593e-06 2.0443276e-06 1.6864154e-06 1.4221132e-06 9.804464e-07 5.7278805e-07 4.0149772e-07 2.2583002e-07
8.122792e-08 3.5622119e-09 1.0347428e-13 1.105725e-19 0.0 0.0 9.110193e-13 9.711818e-10
6.603571e-13 5.6979633e-08 3.613612e-07 5.5507e-07 9.00673e-07 1.5957062e-06 2.2619913e-06 2.919665e-06
4.1592875e-06 5.4157645e-06 5.75459e-06 5.5560963e-06 5.527467e-06 5.6723043e-06 5.448582e-06 4.002129e-06
3.1466786e-06 2.090225e-06 1.0207639e-06 4.352269e-07 2.5353555e-07 1.9399998e-10 2.299175e-14 3.6595294e-16
0.0 3.8532015e-20 1.0169347e-11 5.6836493e-16 5.2583243e-10 2.217993e-07 5.770237e-07 8.5604853e-07
1.3982501e-06 2.428403e-06 3.5386056e-06 4.8540305e-06 6.4153533e-06 7.916236e-06 8.45177e-06 8.827974e-06
9.30323e-06 8.817905e-06 8.210578e-06 7.1883314e-06 6.249893e-06 3.9221723e-06 2.2848458e-06 9.614503e-07
2.591392e-07 8.733517e-09 2.9314672e-13 2.12837e-14 7e-44 8.7755324e-16 1.971209e-17 1.3955604e-13
2.7469524e-09 2.1507614e-07 6.137244e-07 1.0661986e-06 2.0931716e-06 3.2201954e-06 4.777227e-06 6.4234623e-06
8.085064e-06 8.6389355e-06 9.19546e-06 9.476819e-06 9.794512e-06 9.928445e-06 9.424942e-06 8.56766e-06
7.4080604e-06 5.4277593e-06 3.2074774e-06 1.6752073e-06 5.347019e-07 7.8927634e-08 1.0977677e-13 8.228402e-14
2.925077e-09 5.327608e-16 1.8524099e-14 2.3100755e-10 4.6950626e-09 2.4093708e-07 7.58468e-07 1.5399556e-06
2.8538398e-06 4.0817317e-06 5.574399e-06 7.123238e-06 8.014602e-06 7.974298e-06 7.643348e-06 7.982622e-06
8.537106e-06 8.293349e-06 8.237869e-06 7.564131e-06 6.7089477e-06 5.410612e-06 3.7810587e-06 1.8788933e-06
5.537861e-07 1.923371e-08 3.6204403e-13 5.7935105e-16 1.45804e-23 5.024634e-20 1.8486168e-17 2.5182916e-09
00000000: 0000 0000 0000 0000 0000 0000 0000 0000
00000010: 0000 0000 0000 0000 0000 0000 0000 0000
00000020: 0000 0000 0000 0000 0000 0000 0000 0000
00000030: 17d5 4f1d 1dad 7a1e e18b c91a 0027 3316
00000040: 0000 0000 0000 0000 0000 0000 0000 0000
00000050: 0000 0000 0000 0000 0000 0000 0000 0000
00000060: 0000 0000 0000 0000 0000 0000 0000 0000
00000070: 0000 0000 0000 0000 0000 0000 0000 0000
00000080: 8119 000b 5c8b a60c de4b ab0f 53e0 a61c
00000090: 40d5 731f deab 6a1d 8b80 ac26 b74d 3731
000000a0: cb11 3332 6011 f230 cbd9 3126 e2ee 6232
000000b0: 52ee d333 54c2 bf32 6969 0826 2451 d91f
000000c0: 2d73 351f 8eaa 7e17 ab9a 8710 8e0c d710
000000d0: 0000 0000 0000 0000 0000 0000 0000 0000
000000e0: 0000 0000 0000 0000 7e7a ca1c 2e43 912c
000000f0: 3817 0a2b 8eca 251e eae6 4829 c74e 312d
00000100: 4b57 4d2d a60c 022e 3aa4 702b 47d7 8531
00000110: 8353 4f32 d255 b731 8330 f030 27c3 1b30
00000120: 6cf7 3432 26c0 962f 8d28 862d 3728 5e2e
00000130: 2986 4d2e b232 ca2c cd9d 4528 559e c827
00000140: cfce 7b24 68bc 7419 0000 0000 0000 0000
00000150: 0000 0000 0000 0000 0ab2 f51d df8b 2f2e
00000160: 0bf8 9430 a3e0 fa30 f207 3730 b649 6131
00000170: abdb 4032 eba3 4633 70ef 4f34 fa52 0335
00000180: 05cc cb34 09a4 ef34 c3c1 1735 aa10 1f35
00000190: 69fe 1735 261f ee34 5656 b734 a610 7d34
000001a0: f916 fc33 133c 7733 1f43 4933 8d1f 4133
000001b0: 5304 9c32 0b11 1a30 b398 822b 0000 0000
000001c0: 0000 0000 cd86 9612 12af f41f 2883 8a2d
000001d0: 2f2f 0828 821b 052f 6a89 db32 32cd 6434
000001e0: b472 af34 be09 2f35 555c 9a35 00f0 a335
000001f0: 998a 9b35 f3c5 e635 4041 1c36 d76e 2936
00000200: b89d 1a36 4831 0936 cb58 e235 70df be35
00000210: e297 8335 b2c1 1935 6d8d d734 af7b 7234
00000220: 856f ae33 18cb 7431 dc00 e929 7d8a 0220
00000230: 0000 0000 0000 0000 ee36 802b 6c7a 8530
00000240: bedf 392b c5b9 7433 1b01 c234 1f00 1535
00000250: c7c5 7135 0c2c d635 b7cc 1736 76ef 4336
00000260: 0290 8b36 10b9 b536 8d17 c136 816e ba36
00000270: 9478 b936 b954 be36 f7d2 b636 074a 8636
00000280: 872b 5336 cb45 0c36 2e01 8935 21a9 e934
00000290: a91d 8834 244e 552f 5e17 cf28 1ff5 d225
000002a0: 0000 0000 59f6 351f abe6 322d eed1 2326
000002b0: 2b8a 1030 ba27 6e34 c4e4 1a35 35cb 6535
000002c0: 82ab bb35 a5f7 2236 c878 6d36 cedf a236
000002d0: 7743 d736 facf 0437 13cc 0d37 dc1b 1437
000002e0: 1215 1c37 9df0 1337 2ac0 0937 4c33 f136
000002f0: 2cb6 d136 349b 8336 5a55 1936 2e0b 8135
00000300: d21f 8b34 6a0a 1632 e506 a52a dfb4 bf28
00000310: 3200 0000 00f0 7c26 dbcf b523 4a20 1d2a
00000320: e6c4 3c31 aeef 6634 d2be 2435 4e1a 8f35
00000330: 6a78 0c36 891a 5836 114c a036 1f89 d736
00000340: 16a5 0737 f2ef 1037 3346 1a37 a1fe 1e37
00000350: 1c53 2437 5992 2637 d11f 1e37 d2bd 0f37
00000360: c192 f836 1920 b636 0b40 5736 afd7 e035
00000370: 6f88 0f35 ed7e a933 0032 f729 8249 b929
00000380: 8002 4931 cf8e 1926 aad9 a628 d8fe 7d2f
00000390: 3552 a131 245a 8134 8699 4b35 79b0 ce35
000003a0: 9884 3f36 cff5 8836 b90b bb36 2604 ef36
000003b0: 7476 0637 59c9 0537 ee3b 0037 1aed 0537
000003c0: 973a 0f37 aa23 0b37 6135 0a37 64cf fd36
000003d0: 6c1d e136 ce8c b536 18be 7d36 482e fc35
000003e0: e4a7 1435 6037 a532 0bd0 cb2a 90fc 2626
000003f0: 5203 8d19 1948 6d1f 3b81 aa23 410e 2d31

square_avg f4 [10]
2.191708e-05 3.12617e-05 8.6829335e-05 0.00014686727 8.022066e-05 0.00012372415 3.1626023e-05 7.529127e-05
0.00018702316 0.00016263705
00000000: 92da b737 ff1e 0338 2518 b638 6200 1a39
00000010: 243c a838 f3bb 0139 2fa6 0438 b1e5 9d38
00000020: a61b 4439 8d89 2a39
