Chapter 10/logs/hitters/version_1/checkpoints/epoch=49-step=300.ckpt (torch, 14012 bytes, 6 tensors)

model.sequential.0.weight f4 [50, 19]
0	0xbdd05150	-0.10171759
1	0x3cbcfa5e	0.023068603
2	0xbe93e026	-0.2888195
3	0xbe89a4df	-0.268836
4	0xbe40e191	-0.18836047
5	0xbd1d9db5	-0.03848048
6	0xbdd61bed	-0.10454545
7	0x3da7bbe2	0.08190133
8	0xbdf67eee	-0.12035929
9	0xbd20f272	-0.039293714
10	0xbe2d657b	-0.16933243
11	0xbe1493d6	-0.1450952
12	0xbea36a82	-0.31917197
13	0xbe80fe02	-0.25193793
14	0xbe473d7b	-0.19457047
15	0xbdbb6535	-0.09150163
16	0xbc186f54	-0.009303886
17	0x3d1a3bc7	0.037654664
18	0xbe82d4e0	-0.25553036
19	0xbe4cb31e	-0.19990203
20	0xbc88944e	-0.01667228
21	0x3db95a32	0.090504065
22	0xbe16bf36	-0.14721379
23	0x3d92ca14	0.071674496
24	0xbe0c43f6	-0.136978
25	0xbd9b157e	-0.07572459
26	0x3ddca1ce	0.10773049
27	0xbea02a3a	-0.31282216
28	0xbe7a4ac8	-0.2444259
29	0xbe21dfbf	-0.15808009
30	0xbe41f8f4	-0.18942624
31	0x3dc92526	0.098215386
32	0xbe7eabe6	-0.24870262
33	0xbe528acc	-0.2056076
34	0xbe85434e	-0.26027912
35	0xbea13592	-0.31486183
36	0xbe6f8886	-0.23391923
37	0x3dc71392	0.097205296
38	0x3b1b49d0	0.0023695119
39	0x3c375c94	0.011191506
40	0xbdb41715	-0.08793465
41	0xbe5ed72a	-0.21761766
42	0xbd7a9e8f	-0.06118637
43	0xbea0df61	-0.31420425
44	0xbe8812be	-0.265768
45	0xbe5f825a	-0.21827069
46	0x3d3748bb	0.044747096
47	0x3d0d5bc0	0.034511328
48	0xbe4e962c	-0.20174474
49	0xbdddc0c9	-0.108277865
50	0x3d3f6303	0.046725284
51	0x3e0324d3	0.12807016
52	0xbc129db0	-0.008948728
53	0xbd8d53d8	-0.069007576
54	0x3d5c727b	0.053820115
55	0xbe70b8f2	-0.23508051
56	0xbd6a7e4d	-0.057249356
57	0xbe8f5063	-0.27991018
58	0xbe84cdc3	-0.25938234
59	0xbe5fc1b6	-0.21851239
60	0x3b7953a7	0.0038044245
61	0xbbfd8fbc	-0.0077380817
62	0xbe718e75	-0.235895
63	0xbd1c77da	-0.038200237
64	0x3cd19ba4	0.02558691
65	0xbe045789	-0.12924017
66	0xbdbbfa5c	-0.09178612
67	0xbd416ee4	-0.047224894
68	0x3d2b90d8	0.04188618
69	0x3df5af63	0.11996343
70	0xbeaec70d	-0.3413624
71	0xbe3c7de0	-0.18407393
72	0xbc92cb1b	-0.017919114
73	0x3ce72780	0.028217077
74	0x3d95eec1	0.07320929
75	0x3d069d75	0.032865006
76	0xbd5e96b1	-0.05434293
77	0xbe995788	-0.29949594
78	0x3cace366	0.021104526
79	0xbe12f7e1	-0.14352371
80	0xbe5aefaf	-0.21380495
81	0x3e50b9e6	0.20383415
82	0x3d987336	0.0744385
83	0xbea85ed8	-0.3288486
84	0xbd69b785	-0.057059783
85	0xbe0df994	-0.13864738
86	0xbe0d0f1a	-0.13775292
87	0xbe51efe1	-0.20501663
88	0xbc40f354	-0.011776764
89	0xbe718b82	-0.23588374
90	0x3dac3d93	0.08410182
91	0x3c8336ea	0.016017396
92	0x3d838c2c	0.0642322
93	0xbc68f664	-0.0142189
94	0xbea77485	-0.32706085
95	0x3df9bc8f	0.12194168
96	0x3f2a6ab7	0.66569084
97	0x3e159a71	0.14609696
98	0x3e3ce5ba	0.18447009
99	0x3e844029	0.258302
100	0x3f43abdc	0.7643411
101	0x3c27c966	0.010240888
102	0xbd0ba01e	-0.034088247
103	0x3e2ac4a4	0.16676575
104	0x3e2b5910	0.16733193
105	0x3e79814f	0.24365734
106	0x3df20ecc	0.118192285
107	0xbd8ae3da	-0.067817405
108	0x3e3d78b3	0.18503074
109	0xbfaf3696	-1.3688533
110	0x3e5aeb69	0.21378864
111	0x3cd0106a	0.025398452
112	0xbcb2ee53	-0.021842157
113	0x3ec58585	0.3857843
114	0x3d6a5e07	0.057218578
115	0xbe9640b3	-0.29346237
116	0xbe20de4a	-0.15709797
117	0xbdb79974	-0.08964816
118	0xbd883fd5	-0.066528
119	0xbd3abaff	-0.04558849
120	0xbc235c72	-0.009970771
121	0xbdb0a803	-0.08625796
122	0xbe59066a	-0.21193853
123	0x3c0c32b6	0.008557012
124	0xbea3dfcb	-0.32006678
125	0xbe71a3c2	-0.23597625
126	0xbe21353a	-0.1574296
127	0xbde4ddf4	-0.11175147
128	0xbda45ded	-0.080257274
129	0xbe937935	-0.2880341
130	0xbe185f14	-0.1488002
131	0xbd50bc62	-0.050960906
132	0xbe190b20	-0.1494565
133	0xbf2bf3aa	-0.67168677
134	0xbf15c52c	-0.58503985
135	0xbee4d7c5	-0.4469587
136	0xbf34cd5f	-0.7062587
137	0xbf361f3f	-0.7114143
138	0xbf17ff8c	-0.5937431
139	0x3e43f6dd	0.1913714
140	0x3e400b6d	0.18754359
141	0x3d34d76a	0.044150747
142	0x3db6f864	0.089340955
143	0xbe192592	-0.14955738
144	0xbe96f143	-0.29480943
145	0xbdbdccf0	-0.09267604
146	0xbeb0e03f	-0.34546086
147	0xbcd838ca	-0.026394267
148	0xbe7b8df0	-0.24565864
149	0xbf47148d	-0.77765733
150	0xbf861d4f	-1.0477694
151	0xbf103205	-0.56326324
152	0xbd3e9a60	-0.046533942
153	0x3e00d51d	0.12581296
154	0x3dfe0443	0.124031566
155	0xbe6290e4	-0.22125584
156	0x3e128a3a	0.14310542
157	0xbe37d416	-0.17951998
158	0xbd46a8d2	-0.048500843
159	0xbdbe8237	-0.0930218
160	0xbd34ff7f	-0.044188973
161	0xbd38802b	-0.045044105
162	0xbe52ce96	-0.20586619
163	0xbe4ad71e	-0.19808623
164	0xbd130aad	-0.035898853
165	0x3b426f6a	0.0029668459
166	0xbdd57025	-0.104217805
167	0x3db0fd59	0.08642072
168	0xbe537179	-0.20648755
169	0xbc7daae0	-0.015482634
170	0x3e4e983f	0.20175265
171	0xbe463902	-0.19357684
172	0x3ddb7856	0.10716312
173	0xbc8a93e6	-0.016916227
174	0xbe9d342e	-0.30703872
175	0x3d38eff7	0.045150723
176	0xbe018238	-0.12647331
177	0xbe4f454a	-0.20241275
178	0x3daae96e	0.083453044
179	0xbe921e9b	-0.28538975
180	0xbd9a622c	-0.07538256
181	0xbe1795d3	-0.14803247
182	0x3d82b89c	0.06382868
183	0xbd134aa3	-0.03595985
184	0x3c27b2bc	0.010235485
185	0xbc9b7b7a	-0.018979777
186	0xbe1ee48a	-0.15516868
187	0xbe17ce29	-0.14824738
188	0xbe93ff50	-0.28905725
189	0x3cc720aa	0.024307568
190	0x3eb5909e	0.35461897
191	0x3f13afdb	0.5769021
192	0xbd6e3078	-0.058151692
193	0x3ea8f40e	0.329987
194	0x3e397374	0.18110448
195	0x3ea79339	0.3272951
196	0xbeb4a654	-0.35283148
197	0x3d1174cf	0.035511788
198	0xbd1e534c	-0.038653657
199	0x3e4bce15	0.19902833
200	0x3e0213e3	0.12702899
201	0x3e8ebcc3	0.2787839
202	0xbe3c7cf7	-0.18407045
203	0xbe9b0178	-0.30274558
204	0xbf9b75d8	-1.2145338
205	0x3edf72a2	0.43642145
206	0xbea268d8	-0.31720614
207	0x3e65089f	0.2236657
208	0xbd9315f1	-0.07181919
209	0xbed63d20	-0.4184351
210	0xbf3e5dd3	-0.74361914
211	0xbf63799d	-0.8885744
212	0xbf5d2d31	-0.8639708
213	0xbf702301	-0.9380341
214	0xbf644766	-0.89171445
215	0x3f8e31ca	1.1108944
216	0xbec695a7	-0.3878605
217	0xbec71444	-0.3888265
218	0x3f14123a	0.5784031
219	0xbe82f3d7	-0.2557666
220	0x3ddf8466	0.10913925
221	0x3e5d1b61	0.21592475
222	0x3fa3a103	1.2783512
223	0xbf1bdd61	-0.6088467
224	0x3edcab7c	0.43099582
225	0x3f95bb04	1.1697698
226	0x3f278697	0.6543974
227	0x3f90af76	1.1303546
228	0xbf0df528	-0.55452204
229	0xbf36373b	-0.71178025
230	0xbf124238	-0.5713229
231	0xbf06f889	-0.52722985
232	0xbf3a8d14	-0.7287152
233	0xbecdc476	-0.4018895
234	0x3f1cea87	0.6129536
235	0xbe5a0ac9	-0.21293177
236	0x3cc8313f	0.024437545
237	0xbd83f845	-0.06443838
238	0xbe09acc7	-0.13444816
239	0x3da546d4	0.0807015
240	0x3d4f96e6	0.050681017
241	0x3fa1b811	1.2634298
242	0xbf9b6baf	-1.2142237
243	0x3e9e1aea	0.3087991
244	0x3f6fa130	0.9360533
245	0x3e9f374d	0.3109688
246	0x3f9842a2	1.1895335
247	0xbe9454bd	-0.289709
248	0xbdc6530a	-0.09683807
249	0xbd1fc334	-0.03900452
250	0xbdf7742e	-0.120827064
251	0x3cf86615	0.030322114
252	0x3e4242db	0.18970816
253	0xbe2b127c	-0.1670627
254	0xbe71df23	-0.23620276
255	0xbe3d487e	-0.18484685

model.sequential.0.bias f4 [50]
0	0xbe7552ec	-0.23957413
1	0xbe43188f	-0.19052337
2	0xbe933b72	-0.2875629
3	0xbea489be	-0.3213634
4	0x3d18aebf	0.037276026
5	0x3e2ec507	0.17067347
6	0xbd8e3716	-0.069441006
7	0xbf1e80df	-0.6191539
8	0x3d9c513e	0.07632683
9	0xbdb7b133	-0.08969345
10	0xbe813711	-0.25237325
11	0x3f96b5b9	1.1774207
12	0x3f814398	1.0098753
13	0xbea6bc39	-0.32565477
14	0xbea8008d	-0.3281292
15	0x3c8da629	0.017291145
16	0x3e65b1cb	0.22431104
17	0x3f5acb50	0.8546648
18	0xbd5f18a2	-0.05446685
19	0x3f82de65	1.022412
20	0x3d82aaeb	0.06380256
21	0xbeb8e401	-0.36111453
22	0x3e6a6332	0.22889403
23	0x3f785b10	0.9701395
24	0xbe6a86bb	-0.22902958
25	0x3ca2724e	0.019829895
26	0xbc784699	-0.015153551
27	0x3e492add	0.19645257
28	0xbe69bb39	-0.22825326
29	0x3e3ec650	0.18630338
30	0xbe2a9af1	-0.16660668
31	0xbe660a53	-0.22464876
32	0xbe184ee9	-0.14873852
33	0xbe664b6b	-0.22489707
34	0xbd8a37aa	-0.06748898
35	0xbec1d3a3	-0.37856779
36	0xbe8b97bb	-0.272642
37	0x3f4d8e75	0.802955
38	0xbd9dd51d	-0.07706664
39	0x3e22a2de	0.15882441
40	0x3b476b64	0.0030429
41	0x3e375ec3	0.17907242
42	0xbe143518	-0.14473379
43	0xbe31f116	-0.17377123
44	0x3de1bd52	0.11022438
45	0x3d03880d	0.03211217
46	0xbd693a84	-0.05694057
47	0xbe126791	-0.1429732
48	0xbdcb1d25	-0.09917668
49	0xbd0eb606	-0.03484156

model.sequential.3.weight f4 [1, 50]
0	0x3db42d26	0.08797674
1	0xbc289e1c	-0.010291602
2	0x3dcb04d0	0.09913027
3	0xbc73d0bb	-0.014881308
4	0x3d8e7dd1	0.06957591
5	0x3e0a0092	0.1347678
6	0x3ad9ec20	0.0016626157
7	0xbe07b0b1	-0.13250996
8	0xbd0d7131	-0.034531776
9	0x3d7acdf9	0.061231587
10	0x3dbf8f0f	0.09353458
11	0x3f9fb239	1.2476264
12	0x3f4b35d4	0.7937901
13	0x3b28ec70	0.0025775693
14	0x3db85c43	0.090019725
15	0x3dfd5a6f	0.123707645
16	0x3e0dd92a	0.13852373
17	0x3fa0219f	1.251026
18	0x3c949bda	0.018140722
19	0x3f894f55	1.0727335
20	0x3da41be4	0.08013132
21	0xbd48d7a7	-0.049033787
22	0xbda81229	-0.08206589
23	0x3f5b9960	0.85780907
24	0x3db881b8	0.09009117
25	0xbe08c72c	-0.13357228
26	0xbc80c616	-0.015719455
27	0x3d69418e	0.056947283
28	0xbd4478b8	-0.04796669
29	0x3d904bd8	0.07045716
30	0x3c415196	0.011799237
31	0x3ca887c5	0.020572552
32	0x3d3c29a2	0.04593814
33	0x3d61b9fe	0.055109017
34	0x3dbe2792	0.09284891
35	0x3deee5e2	0.116649404
36	0xbc037abe	-0.0080248695
37	0x3f705906	0.9388584
38	0xbdf0ea51	-0.11763442
39	0x3dfe4512	0.12415518
40	0x3cca6506	0.024706375
41	0x3e044b98	0.12919462
42	0x3ce47ac5	0.027890572
43	0x3c9b82a6	0.018983196
44	0x3dabfcd9	0.08397836
45	0x3dd3f0db	0.10348674
46	0xbb07c959	-0.0020719378
47	0x3d7512c1	0.05983234
48	0xbd146d03	-0.036236774
49	0x3d80c107	0.06286817

square_avg f4 [50, 19]
0	0x46f00076	30720.23
1	0x45128fe8	2344.9941
2	0x41a7d96b	20.981161
3	0x4400bd7c	514.9607
4	0x43f6987f	493.19138
5	0x43a0425c	320.51843
6	0x418294da	16.322681
7	0x4a4269b4	3.185261e+06
8	0x4878aded	254647.7
9	0x4511cd9b	2332.8503
10	0x476e7a73	61050.45
11	0x47551366	54547.4
12	0x46cc4766	26147.7
13	0x3d14cef0	0.036330163
14	0x3d205380	0.03914213
15	0x46d0a079	26704.236
16	0x45782098	3970.037
17	0x41a6a412	20.830112
18	0x3d3a69c8	0.045511037
19	0x49d9811b	1.7817954e+06
20	0x48061ca5	137330.58
21	0x448c3741	1121.7267
22	0x46e9bceb	29918.459
23	0x46c8d8ef	25708.467
24	0x46cbdb80	26093.75
25	0x44907691	1155.7052
26	0x4d5291a6	2.2079754e+08
27	0x4b80f351	1.6901794e+07
28	0x483b52c7	191819.11
29	0x4a83fb49	4.3247725e+06
30	0x4a64a903	3.7463688e+06
31	0x4a20181a	2.6229825e+06
32	0x407afcbf	3.9216764
33	0x3fcc4a65	1.5960203
34	0x49e94ddc	1.9112275e+06
35	0x4825e2a9	169866.64
36	0x44a3fbf2	1311.8733
37	0x4015d109	2.3408835
38	0x3e71f5b1	0.2362888
39	0x3c76519d	0.015034107
40	0x392212cf	0.0001545653
41	0x3b7ce085	0.0038585973
42	0x3b348591	0.0027545432
43	0x3ab760d0	0.0013990644
44	0x373589b0	1.0820499e-05
45	0x3ed4520e	0.41468853
46	0x3ccdfde3	0.025145477
47	0x39392c7a	0.00017659544
48	0x3bddb802	0.00676632
49	0x3b8d62c2	0.0043147514
50	0x3b124399	0.0022318123
51	0x34b228d6	3.3184796e-07
52	0x35467785	7.393467e-07
53	0x3d6ff858	0.05858645
54	0x3de26407	0.11054235
55	0x39c5ed91	0.0003775177
56	0x34b228d6	3.3184796e-07
57	0x4a9b2ffc	5.085182e+06
58	0x48b5d123	372361.1
59	0x45b27133	5710.15
60	0x47b90171	94722.88
61	0x47b217bd	91183.48
62	0x47973f4c	77438.59
63	0x456b4fb9	3764.9827
64	0x4e27e0ac	7.041298e+08
65	0x4c4b6399	5.331722e+07
66	0x492e142a	713026.6
67	0x4b482382	1.311629e+07
68	0x4b4ecb0e	1.3552398e+07
69	0x4afca1d8	8.278252e+06
70	0x414de2c8	12.8678665
71	0x40d77df9	6.7341275
72	0x4a96d82c	4.94287e+06
73	0x49257bd4	677821.25
74	0x452b35a4	2739.3525
75	0x4131b5d9	11.106896
76	0x4111560f	9.08351
77	0x3cba07bb	0.022708764
78	0x00000000	0.0
79	0x00000000	0.0
80	0x00000000	0.0
81	0x00000000	0.0
82	0x3dba07bb	0.09083506
83	0x4218b19b	38.173443
84	0x3feb71cc	1.8394103
85	0x3dba07bb	0.09083506
86	0x3f5148ad	0.8175152
87	0x3f8e6dec	1.1127295
88	0x3eba07bb	0.36334023
89	0x3cba07bb	0.022708764
90	0x00000000	0.0
91	0x430a2903	138.1602
92	0x44896355	1099.1041
93	0x3f5148ad	0.8175152
94	0x3cba07bb	0.022708764
95	0x4d3c76f0	1.9761946e+08
96	0x4b72c9cb	1.5911371e+07
97	0x487b941f	257616.48
98	0x4a81fc97	4.2594035e+06
99	0x4a824124	4.268178e+06
100	0x4a325770	2.921948e+06
101	0x47cb855f	104202.74
102	0x5091a306	1.9547042e+10
103	0x4eb68ae6	1.5312781e+09
104	0x4bc7db2a	2.619554e+07
105	0x4dc02e3f	4.0303203e+08
106	0x4dcbc98b	4.273729e+08
107	0x4d738089	2.5533045e+08
108	0x43821b38	260.21265
109	0x43a789cc	335.07654
110	0x4d813e1f	2.710415e+08
111	0x4b9624a5	1.9679562e+07
112	0x479d45cb	80523.586
113	0x437fe42b	255.89128
114	0x41dfbf81	27.968508
115	0x3faa0df2	1.3285506
116	0x3a96a2f4	0.0011492656
117	0x3e96a2f4	0.29421198
118	0x3e0e660d	0.13906117
119	0x3e29775b	0.16549437
120	0x3996a2f4	0.0002873164
121	0x41dfbf81	27.968508
122	0x3faa0df2	1.3285506
123	0x3a96a2f4	0.0011492656
124	0x3e96a2f4	0.29421198
125	0x3e0e660d	0.13906117
126	0x3e29775b	0.16549437
127	0x00000000	0.0
128	0x00000000	0.0
129	0x4007ffdf	2.1249921
130	0x40cede29	6.464619
131	0x3d846532	0.06464614
132	0x00000000	0.0
133	0x4c31ab52	4.657492e+07
134	0x4a577bb0	3.530476e+06
135	0x4768a0ff	59552.996
136	0x4969a9da	957085.6
137	0x49840ae7	1.0816929e+06
138	0x4948ad8f	821976.94
139	0x473707ca	46855.79
140	0x5008a9c4	9.171309e+09
141	0x4e29fe0a	7.1299955e+08
142	0x4b507dd4	1.36637e+07
143	0x4d391daa	1.9410806e+08
144	0x4d40bb19	2.0209294e+08
145	0x4cddcd37	1.1628793e+08
146	0x4255b537	53.426968
147	0x42a8156c	84.04184
148	0x4bf56995	3.2166698e+07
149	0x4a34cbf9	2.9621742e+06
150	0x46723fc8	15503.945
151	0x425ea54b	55.66142
152	0x00000000	0.0
153	0x00000000	0.0
154	0x00000000	0.0
155	0x00000000	0.0
156	0x00000000	0.0
157	0x00000000	0.0
158	0x00000000	0.0
159	0x00000000	0.0
160	0x00000000	0.0
161	0x00000000	0.0
162	0x00000000	0.0
163	0x00000000	0.0
164	0x00000000	0.0
165	0x00000000	0.0
166	0x00000000	0.0
167	0x00000000	0.0
168	0x00000000	0.0
169	0x00000000	0.0
170	0x00000000	0.0
171	0x4902a770	535159.0
172	0x471e627a	40546.477
173	0x43e47505	456.9142
174	0x461fd60f	10229.515
175	0x4609ebe1	8826.97
176	0x45decf01	7129.8755
177	0x43b34d31	358.60306
178	0x4c80ee3b	6.759676e+07
179	0x4aa10009	5.2756525e+06
180	0x47462a6d	50730.426
181	0x4999feed	1.2615336e+06
182	0x498dc9e6	1.1615328e+06
183	0x4926d612	683361.1
184	0x3f8ae628	1.0851488
185	0x3f4f1b50	0.8090105
186	0x48b14721	363065.03
187	0x477a9b97	64155.59
188	0x43a73082	334.37897
189	0x3f47c946	0.78041494
190	0x4cabbb04	9.003626e+07
191	0x4ad865cb	7.0909175e+06
192	0x47e9f1e5	119779.79
193	0x49ebd039	1.9317831e+06
194	0x49f192b5	1.9789666e+06
195	0x49ab3e0e	1.4028178e+06
196	0x474921ad	51489.676
197	0x500e0aa3	9.532247e+09
198	0x4e31dee4	7.4604365e+08
199	0x4b43163a	1.278521e+07
200	0x4d3a1ae0	1.9514522e+08
201	0x4d4888f1	2.1027611e+08
202	0x4ce6282f	1.20668536e+08
203	0x42de764b	111.23104
204	0x43130a0f	147.03929
205	0x4cecc46b	1.2413423e+08
206	0x4b00dcc0	8.44512e+06
207	0x471494ce	38036.805
208	0x42e37306	113.724655
209	0x4aae9220	5.720336e+06
210	0x48a7e40b	343840.34
211	0x452bc66a	2748.401
212	0x4786a3d3	68935.65
213	0x47607e06	57470.023
214	0x4748c716	51399.086
215	0x457c63dc	4038.2412
216	0x4b04fcff	8.715519e+06
217	0x48f8fe75	509939.66
218	0x45d49da7	6803.7065
219	0x47f43ddc	125051.72
220	0x47d6823d	109828.48
221	0x4795d674	76716.91
222	0x448068d6	1027.2761
223	0x41af4ef9	21.91356
224	0x4b8233ed	1.7065946e+07
225	0x4c3767b5	4.8078548e+07
226	0x471aa808	39592.03
227	0x448068d6	1027.2761
228	0x49ffd3a6	2.0957328e+06
229	0x47e50e98	117277.19
230	0x4443b9db	782.904
231	0x46a220aa	20752.332
232	0x4680c693	16483.287
233	0x46540189	13568.384
234	0x44d069d2	1667.3069
235	0x4b64873c	1.4976828e+07
236	0x495658d7	877965.44
237	0x45b894dc	5906.6074
238	0x483e3fb8	194814.88
239	0x480b9642	142937.03
240	0x481be4f3	159635.8
241	0x43b5ed42	363.85358
242	0x416605d5	14.376424
243	0x4a2b0b6d	2.8023952e+06
244	0x4b86c51a	1.7664564e+07
245	0x467eb157	16300.335
246	0x43b5f53d	363.91592
247	0x42bf8795	95.76481
248	0x3e752869	0.23941197
249	0x00000000	0.0
250	0x00000000	0.0
251	0x00000000	0.0
252	0x00000000	0.0
253	0x3f752869	0.95764786
254	0x43c939d7	402.45187
255	0x419b2396	19.392376

square_avg f4 [50]
0	0x3e3b444c	0.18287772
1	0x41321d24	11.132114
2	0x35c69e01	1.4798135e-06
3	0x4213c7c1	36.945072
4	0x3cba07bb	0.022708764
5	0x445ed4cc	891.32495
6	0x3996a2f4	0.0002873164
7	0x43743c35	244.23518
8	0x00000000	0.0
9	0x404ebb1e	3.2301707
10	0x43d70745	430.0568
11	0x447ac8f4	1003.1399
12	0x43b30d94	358.10608
13	0x3e752869	0.23941197
14	0x3ca4d5c4	0.020121463
15	0x4426cfa4	667.2444
16	0x44898b53	1100.3539
17	0x44a46d94	1315.4243
18	0x41146603	9.274905
19	0x44851360	1064.6055
20	0x440d8f6e	566.2411
21	0x424cce9f	51.20178
22	0x00000000	0.0
23	0x4408655d	545.5838
24	0x38c5b9d9	9.428309e-05
25	0x00000000	0.0
26	0x4108922c	8.5356865
27	0x42d1c81d	104.89085
28	0x00000000	0.0
29	0x43dd2ebe	442.36517
30	0x39ae8a4a	0.000332909
31	0x00000000	0.0
32	0x4155256a	13.321634
33	0x408df78b	4.4364676
34	0x3aa91381	0.0012899489
35	0x44321dd4	712.46606
36	0x3b009523	0.0019620142
37	0x44053c09	532.93805
38	0x00000000	0.0
39	0x44758bbb	982.1833
40	0x41783273	15.512317
41	0x00000000	0.0
42	0x41403347	12.012519
43	0x3edb5999	0.42841795
44	0x43d2e214	421.76624
45	0x4421d0e9	647.2642
46	0x3c0c9a18	0.008581661
47	0x4354e9a3	212.91264
48	0x41df63c0	27.923706
49	0x43bf98b3	383.19296

square_avg f4 [1, 50]
0	0x4de2352d	4.7439197e+08
1	0x4d77f26c	2.5999123e+08
2	0x45625b89	3621.721
3	0x4ea55c34	1.3871416e+09
4	0x470221d0	33313.812
5	0x504afaff	1.3621788e+10
6	0x3cf47407	0.029840482
7	0x4f552e2e	3.5765734e+09
8	0x00000000	0.0
9	0x4e5c5414	9.241244e+08
10	0x50e2f341	3.0460742e+10
11	0x4c42a2a7	5.1022492e+07
12	0x4c00a4ed	3.3723316e+07
13	0x47055c28	34140.156
14	0x488265aa	267053.3
15	0x50e00e65	3.0072318e+10
16	0x50513186	1.4038735e+10
17	0x4c51c20d	5.4986804e+07
18	0x4d472737	2.0882725e+08
19	0x4c511a79	5.4815204e+07
20	0x50f709f0	3.3156989e+10
21	0x4f8e25d1	4.769686e+09
22	0x00000000	0.0
23	0x4c210c8f	4.2218044e+07
24	0x43a6bf6f	333.49557
25	0x00000000	0.0
26	0x4e886aea	1.144354e+09
27	0x4f650b55	3.842725e+09
28	0x00000000	0.0
29	0x50c631fe	2.660132e+10
30	0x39d11149	0.00039876465
31	0x00000000	0.0
32	0x4e651db8	9.609825e+08
33	0x4bb99d78	2.4328944e+07
34	0x4651910e	13412.264
35	0x509ea831	2.1294582e+10
36	0x414897c5	12.537053
37	0x4bf4d0b0	3.2088416e+07
38	0x00000000	0.0
39	0x50a57d60	2.2211658e+10
40	0x4e1285c1	6.145598e+08
41	0x00000000	0.0
42	0x4f1dbdff	2.6464745e+09
43	0x471b43c7	39747.777
44	0x50d9c91d	2.9230688e+10
45	0x510b556b	3.7402096e+10
46	0x45e63b85	7367.44
47	0x51987760	8.185473e+10
48	0x4c89f59f	7.233049e+07
49	0x50e14287	3.0233868e+10
